…
D 1 --gammaG 1                 --manualSeed 3407 --encoded_noise --preprocessing --cuda --image_embedding SqueezeNet_1024_T --class_embedding GPT_3072_gzsl                 --nepoch 300 --ngh 4096 --ndh 4096 --lr 0.0005 --classifier_lr 0.005 --lambda1 10 --critic_iter 5 --dataroot datasets --dataset RADAR                 --nclass_all 27 --batch_size 128 --nz 3072 --latent_size 3072 --attSize 3072 --resSize 1024 --syn_num 320                 --gzsl --recons_weight 0.01 --a1 1 --a2 1 --feed_lr 0.00001 --dec_lr 0.0001 --feedback_loop 2
Random Seed:  3407
# of training samples:  538
Encoder(
  (fc1): Linear(in_features=4096, out_features=4096, bias=True)
  (fc3): Linear(in_features=4096, out_features=6144, bias=True)
  (lrelu): LeakyReLU(0.2, inplace)
  (linear_means): Linear(in_features=6144, out_features=3072, bias=True)
  (linear_log_var): Linear(in_features=6144, out_features=3072, bias=True)
)
Generator(
  (fc1): Linear(in_features=6144, out_features=4096, bias=True)
  (fc3): Linear(in_features=4096, out_features=1024, bias=True)
  (lrelu): LeakyReLU(0.2, inplace)
  (sigmoid): Sigmoid()
)
Discriminator_D1(
  (fc1): Linear(in_features=4096, out_features=4096, bias=True)
  (fc2): Linear(in_features=4096, out_features=1, bias=True)
  (lrelu): LeakyReLU(0.2, inplace)
)
Feedback(
  (fc1): Linear(in_features=4096, out_features=4096, bias=True)
  (fc2): Linear(in_features=4096, out_features=4096, bias=True)
  (lrelu): LeakyReLU(0.2, inplace)
)
AttDec(
  (fc1): Linear(in_features=1024, out_features=4096, bias=True)
  (fc3): Linear(in_features=4096, out_features=3072, bias=True)
  (lrelu): LeakyReLU(0.2, inplace)
)
[0/300]  Loss_D: -8.8739 Loss_G: -2.2836, Wasserstein_dist:10.9178, vae_loss_seen:478.2348 GZSL: seen=0.8849, unseen=0.2500, h=0.3899 ZSL: unseen accuracy=0.6042
[1/300]  Loss_D: -5.5014 Loss_G: -9.5166, Wasserstein_dist:6.9503, vae_loss_seen:388.6659 GZSL: seen=0.8571, unseen=0.4167, h=0.5607 ZSL: unseen accuracy=0.5052
…
