Random Seed:  3407
# of training samples:  538
Encoder(
  (fc1): Linear(in_features=4096, out_features=4096, bias=True)
  (fc3): Linear(in_features=4096, out_features=6144, bias=True)
  (lrelu): LeakyReLU(0.2, inplace)
  (linear_means): Linear(in_features=6144, out_features=3072, bias=True)
  (linear_log_var): Linear(in_features=6144, out_features=3072, bias=True)
)
Generator(
  (fc1): Linear(in_features=6144, out_features=4096, bias=True)
  (fc3): Linear(in_features=4096, out_features=1024, bias=True)
  (lrelu): LeakyReLU(0.2, inplace)
  (sigmoid): Sigmoid()
)
Discriminator_D1(
  (fc1): Linear(in_features=4096, out_features=4096, bias=True)
  (fc2): Linear(in_features=4096, out_features=1, bias=True)
  (lrelu): LeakyReLU(0.2, inplace)
)
Feedback(
  (fc1): Linear(in_features=4096, out_features=4096, bias=True)
  (fc2): Linear(in_features=4096, out_features=4096, bias=True)
  (lrelu): LeakyReLU(0.2, inplace)
)
AttDec(
  (fc1): Linear(in_features=1024, out_features=4096, bias=True)
  (fc3): Linear(in_features=4096, out_features=3072, bias=True)
  (lrelu): LeakyReLU(0.2, inplace)
)
[0/300]  Loss_D: -188.9271 Loss_G: 19.2485, Wasserstein_dist:255.4201, vae_loss_seen:1129.1403 GZSL: seen=0.9028, unseen=0.1979, h=0.3247 ZSL: unseen accuracy=0.6354
[1/300]  Loss_D: -110.5624 Loss_G: -7.5299, Wasserstein_dist:136.3756, vae_loss_seen:696.0344 GZSL: seen=0.8730, unseen=0.2083, h=0.3364 ZSL: unseen accuracy=0.5677
…
