Random Seed:  3407
# of training samples:  538
Encoder(
  (fc1): Linear(in_features=4096, out_features=4096, bias=True)
  (fc3): Linear(in_features=4096, out_features=6144, bias=True)
  (lrelu): LeakyReLU(0.2, inplace)
  (linear_means): Linear(in_features=6144, out_features=3072, bias=True)
  (linear_log_var): Linear(in_features=6144, out_features=3072, bias=True)
)
Generator(
  (fc1): Linear(in_features=6144, out_features=4096, bias=True)
  (fc3): Linear(in_features=4096, out_features=1024, bias=True)
  (lrelu): LeakyReLU(0.2, inplace)
  (sigmoid): Sigmoid()
)
Discriminator_D1(
  (fc1): Linear(in_features=4096, out_features=4096, bias=True)
  (fc2): Linear(in_features=4096, out_features=1, bias=True)
  (lrelu): LeakyReLU(0.2, inplace)
)
Feedback(
  (fc1): Linear(in_features=4096, out_features=4096, bias=True)
  (fc2): Linear(in_features=4096, out_features=4096, bias=True)
  (lrelu): LeakyReLU(0.2, inplace)
)
AttDec(
  (fc1): Linear(in_features=1024, out_features=4096, bias=True)
  (fc3): Linear(in_features=4096, out_features=3072, bias=True)
  (lrelu): LeakyReLU(0.2, inplace)
)
[0/300]  Loss_D: -18.8864 Loss_G: 19.2461, Wasserstein_dist:25.4866, vae_loss_seen:1129.4170 GZSL: seen=0.8849, unseen=0.1667, h=0.2805 ZSL: unseen accuracy=0.6562
[1/300]  Loss_D: -11.0592 Loss_G: -7.5508, Wasserstein_dist:13.6466, vae_loss_seen:695.8660 GZSL: seen=0.8552, unseen=0.2812, h=0.4233 ZSL: unseen accuracy=0.6198
…
