Random Seed:  3407
# of training samples:  538
Encoder(
  (fc1): Linear(in_features=4096, out_features=4096, bias=True)
  (fc3): Linear(in_features=4096, out_features=6144, bias=True)
  (lrelu): LeakyReLU(0.2, inplace)
  (linear_means): Linear(in_features=6144, out_features=3072, bias=True)
  (linear_log_var): Linear(in_features=6144, out_features=3072, bias=True)
)
Generator(
  (fc1): Linear(in_features=6144, out_features=4096, bias=True)
  (fc3): Linear(in_features=4096, out_features=1024, bias=True)
  (lrelu): LeakyReLU(0.2, inplace)
  (sigmoid): Sigmoid()
)
Discriminator_D1(
  (fc1): Linear(in_features=4096, out_features=4096, bias=True)
  (fc2): Linear(in_features=4096, out_features=1, bias=True)
  (lrelu): LeakyReLU(0.2, inplace)
)
Feedback(
  (fc1): Linear(in_features=4096, out_features=4096, bias=True)
  (fc2): Linear(in_features=4096, out_features=4096, bias=True)
  (lrelu): LeakyReLU(0.2, inplace)
)
AttDec(
  (fc1): Linear(in_features=1024, out_features=4096, bias=True)
  (fc3): Linear(in_features=4096, out_features=3072, bias=True)
  (lrelu): LeakyReLU(0.2, inplace)
)
[0/300]  Loss_D: -8.4228 Loss_G: -2.5191, Wasserstein_dist:10.3159, vae_loss_seen:456.0551 GZSL: seen=0.8651, unseen=0.2969, h=0.4420 ZSL: unseen accuracy=0.6615
[1/300]  Loss_D: -4.0877 Loss_G: -7.5182, Wasserstein_dist:5.1308, vae_loss_seen:327.8810 GZSL: seen=0.8452, unseen=0.3542, h=0.4992 ZSL: unseen accuracy=0.4948
…
