Random Seed:  3407
# of training samples:  538
Encoder(
  (fc1): Linear(in_features=4096, out_features=4096, bias=True)
  (fc3): Linear(in_features=4096, out_features=6144, bias=True)
  (lrelu): LeakyReLU(0.2, inplace)
  (linear_means): Linear(in_features=6144, out_features=3072, bias=True)
  (linear_log_var): Linear(in_features=6144, out_features=3072, bias=True)
)
Generator(
  (fc1): Linear(in_features=6144, out_features=4096, bias=True)
  (fc3): Linear(in_features=4096, out_features=1024, bias=True)
  (lrelu): LeakyReLU(0.2, inplace)
  (sigmoid): Sigmoid()
)
Discriminator_D1(
  (fc1): Linear(in_features=4096, out_features=4096, bias=True)
  (fc2): Linear(in_features=4096, out_features=1, bias=True)
  (lrelu): LeakyReLU(0.2, inplace)
)
Feedback(
  (fc1): Linear(in_features=4096, out_features=4096, bias=True)
  (fc2): Linear(in_features=4096, out_features=4096, bias=True)
  (lrelu): LeakyReLU(0.2, inplace)
)
AttDec(
  (fc1): Linear(in_features=1024, out_features=4096, bias=True)
  (fc3): Linear(in_features=4096, out_features=3072, bias=True)
  (lrelu): LeakyReLU(0.2, inplace)
)
[0/300]  Loss_D: -15.7132 Loss_G: 10.8620, Wasserstein_dist:20.1974, vae_loss_seen:1046.9884 GZSL: seen=0.8909, unseen=0.2292, h=0.3646 ZSL: unseen accuracy=0.5417
[1/300]  Loss_D: -11.1132 Loss_G: -5.0339, Wasserstein_dist:14.1756, vae_loss_seen:682.3192 GZSL: seen=0.8929, unseen=0.2135, h=0.3447 ZSL: unseen accuracy=0.6094
…
